ir_version: 4
producer_name: "pytorch"
producer_version: "1.2"
model_version: 0
graph {
  name: "torch-jit-export"
  node {
    input: "input.1"
    input: "first_conv.weight"
    input: "first_conv.bias"
    output: "68"
    op_type: "Conv"
    attribute {
      name: "dilations"
      ints: 1
      ints: 1
      type: INTS
    }
    attribute {
      name: "group"
      i: 1
      type: INT
    }
    attribute {
      name: "kernel_shape"
      ints: 5
      ints: 5
      type: INTS
    }
    attribute {
      name: "pads"
      ints: 1
      ints: 1
      ints: 1
      ints: 1
      type: INTS
    }
    attribute {
      name: "strides"
      ints: 2
      ints: 2
      type: INTS
    }
  }
  node {
    input: "68"
    input: "block_1.block.0.weight"
    input: "block_1.block.0.bias"
    input: "block_1.block.0.running_mean"
    input: "block_1.block.0.running_var"
    output: "69"
    op_type: "BatchNormalization"
    attribute {
      name: "epsilon"
      f: 9.999999747378752e-06
      type: FLOAT
    }
    attribute {
      name: "momentum"
      f: 0.8999999761581421
      type: FLOAT
    }
  }
  node {
    input: "69"
    output: "70"
    op_type: "Relu"
  }
  node {
    input: "70"
    input: "block_1.block.2.weight"
    input: "block_1.block.2.bias"
    output: "71"
    op_type: "Conv"
    attribute {
      name: "dilations"
      ints: 1
      ints: 1
      type: INTS
    }
    attribute {
      name: "group"
      i: 1
      type: INT
    }
    attribute {
      name: "kernel_shape"
      ints: 3
      ints: 3
      type: INTS
    }
    attribute {
      name: "pads"
      ints: 1
      ints: 1
      ints: 1
      ints: 1
      type: INTS
    }
    attribute {
      name: "strides"
      ints: 2
      ints: 2
      type: INTS
    }
  }
  node {
    input: "71"
    input: "block_1.block.3.weight"
    input: "block_1.block.3.bias"
    input: "block_1.block.3.running_mean"
    input: "block_1.block.3.running_var"
    output: "72"
    op_type: "BatchNormalization"
    attribute {
      name: "epsilon"
      f: 9.999999747378752e-06
      type: FLOAT
    }
    attribute {
      name: "momentum"
      f: 0.8999999761581421
      type: FLOAT
    }
  }
  node {
    input: "72"
    output: "73"
    op_type: "Relu"
  }
  node {
    input: "73"
    input: "block_1.block.6.weight"
    input: "block_1.block.6.bias"
    output: "74"
    op_type: "Conv"
    attribute {
      name: "dilations"
      ints: 1
      ints: 1
      type: INTS
    }
    attribute {
      name: "group"
      i: 1
      type: INT
    }
    attribute {
      name: "kernel_shape"
      ints: 3
      ints: 3
      type: INTS
    }
    attribute {
      name: "pads"
      ints: 1
      ints: 1
      ints: 1
      ints: 1
      type: INTS
    }
    attribute {
      name: "strides"
      ints: 1
      ints: 1
      type: INTS
    }
  }
  node {
    input: "68"
    input: "block_1.downsample.0.weight"
    input: "block_1.downsample.0.bias"
    input: "block_1.downsample.0.running_mean"
    input: "block_1.downsample.0.running_var"
    output: "75"
    op_type: "BatchNormalization"
    attribute {
      name: "epsilon"
      f: 9.999999747378752e-06
      type: FLOAT
    }
    attribute {
      name: "momentum"
      f: 0.8999999761581421
      type: FLOAT
    }
  }
  node {
    input: "75"
    input: "block_1.downsample.1.weight"
    input: "block_1.downsample.1.bias"
    output: "76"
    op_type: "Conv"
    attribute {
      name: "dilations"
      ints: 1
      ints: 1
      type: INTS
    }
    attribute {
      name: "group"
      i: 1
      type: INT
    }
    attribute {
      name: "kernel_shape"
      ints: 1
      ints: 1
      type: INTS
    }
    attribute {
      name: "pads"
      ints: 0
      ints: 0
      ints: 0
      ints: 0
      type: INTS
    }
    attribute {
      name: "strides"
      ints: 2
      ints: 2
      type: INTS
    }
  }
  node {
    input: "74"
    input: "76"
    output: "77"
    op_type: "Add"
  }
  node {
    input: "77"
    input: "block_2.block.0.weight"
    input: "block_2.block.0.bias"
    input: "block_2.block.0.running_mean"
    input: "block_2.block.0.running_var"
    output: "78"
    op_type: "BatchNormalization"
    attribute {
      name: "epsilon"
      f: 9.999999747378752e-06
      type: FLOAT
    }
    attribute {
      name: "momentum"
      f: 0.8999999761581421
      type: FLOAT
    }
  }
  node {
    input: "78"
    output: "79"
    op_type: "Relu"
  }
  node {
    input: "79"
    input: "block_2.block.2.weight"
    input: "block_2.block.2.bias"
    output: "80"
    op_type: "Conv"
    attribute {
      name: "dilations"
      ints: 1
      ints: 1
      type: INTS
    }
    attribute {
      name: "group"
      i: 1
      type: INT
    }
    attribute {
      name: "kernel_shape"
      ints: 3
      ints: 3
      type: INTS
    }
    attribute {
      name: "pads"
      ints: 1
      ints: 1
      ints: 1
      ints: 1
      type: INTS
    }
    attribute {
      name: "strides"
      ints: 2
      ints: 2
      type: INTS
    }
  }
  node {
    input: "80"
    input: "block_2.block.3.weight"
    input: "block_2.block.3.bias"
    input: "block_2.block.3.running_mean"
    input: "block_2.block.3.running_var"
    output: "81"
    op_type: "BatchNormalization"
    attribute {
      name: "epsilon"
      f: 9.999999747378752e-06
      type: FLOAT
    }
    attribute {
      name: "momentum"
      f: 0.8999999761581421
      type: FLOAT
    }
  }
  node {
    input: "81"
    output: "82"
    op_type: "Relu"
  }
  node {
    input: "82"
    input: "block_2.block.6.weight"
    input: "block_2.block.6.bias"
    output: "83"
    op_type: "Conv"
    attribute {
      name: "dilations"
      ints: 1
      ints: 1
      type: INTS
    }
    attribute {
      name: "group"
      i: 1
      type: INT
    }
    attribute {
      name: "kernel_shape"
      ints: 3
      ints: 3
      type: INTS
    }
    attribute {
      name: "pads"
      ints: 1
      ints: 1
      ints: 1
      ints: 1
      type: INTS
    }
    attribute {
      name: "strides"
      ints: 1
      ints: 1
      type: INTS
    }
  }
  node {
    input: "77"
    input: "block_2.downsample.0.weight"
    input: "block_2.downsample.0.bias"
    input: "block_2.downsample.0.running_mean"
    input: "block_2.downsample.0.running_var"
    output: "84"
    op_type: "BatchNormalization"
    attribute {
      name: "epsilon"
      f: 9.999999747378752e-06
      type: FLOAT
    }
    attribute {
      name: "momentum"
      f: 0.8999999761581421
      type: FLOAT
    }
  }
  node {
    input: "84"
    input: "block_2.downsample.1.weight"
    input: "block_2.downsample.1.bias"
    output: "85"
    op_type: "Conv"
    attribute {
      name: "dilations"
      ints: 1
      ints: 1
      type: INTS
    }
    attribute {
      name: "group"
      i: 1
      type: INT
    }
    attribute {
      name: "kernel_shape"
      ints: 1
      ints: 1
      type: INTS
    }
    attribute {
      name: "pads"
      ints: 0
      ints: 0
      ints: 0
      ints: 0
      type: INTS
    }
    attribute {
      name: "strides"
      ints: 2
      ints: 2
      type: INTS
    }
  }
  node {
    input: "83"
    input: "85"
    output: "86"
    op_type: "Add"
  }
  node {
    input: "86"
    input: "block_3.block.0.weight"
    input: "block_3.block.0.bias"
    input: "block_3.block.0.running_mean"
    input: "block_3.block.0.running_var"
    output: "87"
    op_type: "BatchNormalization"
    attribute {
      name: "epsilon"
      f: 9.999999747378752e-06
      type: FLOAT
    }
    attribute {
      name: "momentum"
      f: 0.8999999761581421
      type: FLOAT
    }
  }
  node {
    input: "87"
    output: "88"
    op_type: "Relu"
  }
  node {
    input: "88"
    input: "block_3.block.2.weight"
    input: "block_3.block.2.bias"
    output: "89"
    op_type: "Conv"
    attribute {
      name: "dilations"
      ints: 1
      ints: 1
      type: INTS
    }
    attribute {
      name: "group"
      i: 1
      type: INT
    }
    attribute {
      name: "kernel_shape"
      ints: 3
      ints: 3
      type: INTS
    }
    attribute {
      name: "pads"
      ints: 1
      ints: 1
      ints: 1
      ints: 1
      type: INTS
    }
    attribute {
      name: "strides"
      ints: 2
      ints: 2
      type: INTS
    }
  }
  node {
    input: "89"
    input: "block_3.block.3.weight"
    input: "block_3.block.3.bias"
    input: "block_3.block.3.running_mean"
    input: "block_3.block.3.running_var"
    output: "90"
    op_type: "BatchNormalization"
    attribute {
      name: "epsilon"
      f: 9.999999747378752e-06
      type: FLOAT
    }
    attribute {
      name: "momentum"
      f: 0.8999999761581421
      type: FLOAT
    }
  }
  node {
    input: "90"
    output: "91"
    op_type: "Relu"
  }
  node {
    input: "91"
    input: "block_3.block.6.weight"
    input: "block_3.block.6.bias"
    output: "92"
    op_type: "Conv"
    attribute {
      name: "dilations"
      ints: 1
      ints: 1
      type: INTS
    }
    attribute {
      name: "group"
      i: 1
      type: INT
    }
    attribute {
      name: "kernel_shape"
      ints: 3
      ints: 3
      type: INTS
    }
    attribute {
      name: "pads"
      ints: 1
      ints: 1
      ints: 1
      ints: 1
      type: INTS
    }
    attribute {
      name: "strides"
      ints: 1
      ints: 1
      type: INTS
    }
  }
  node {
    input: "86"
    input: "block_3.downsample.0.weight"
    input: "block_3.downsample.0.bias"
    input: "block_3.downsample.0.running_mean"
    input: "block_3.downsample.0.running_var"
    output: "93"
    op_type: "BatchNormalization"
    attribute {
      name: "epsilon"
      f: 9.999999747378752e-06
      type: FLOAT
    }
    attribute {
      name: "momentum"
      f: 0.8999999761581421
      type: FLOAT
    }
  }
  node {
    input: "93"
    input: "block_3.downsample.1.weight"
    input: "block_3.downsample.1.bias"
    output: "94"
    op_type: "Conv"
    attribute {
      name: "dilations"
      ints: 1
      ints: 1
      type: INTS
    }
    attribute {
      name: "group"
      i: 1
      type: INT
    }
    attribute {
      name: "kernel_shape"
      ints: 1
      ints: 1
      type: INTS
    }
    attribute {
      name: "pads"
      ints: 0
      ints: 0
      ints: 0
      ints: 0
      type: INTS
    }
    attribute {
      name: "strides"
      ints: 2
      ints: 2
      type: INTS
    }
  }
  node {
    input: "92"
    input: "94"
    output: "95"
    op_type: "Add"
  }
  node {
    input: "95"
    output: "96"
    op_type: "Pad"
    attribute {
      name: "mode"
      s: "constant"
      type: STRING
    }
    attribute {
      name: "pads"
      ints: 0
      ints: 0
      ints: 0
      ints: 0
      ints: 0
      ints: 0
      ints: 0
      ints: 0
      type: INTS
    }
    attribute {
      name: "value"
      f: 0.0
      type: FLOAT
    }
  }
  node {
    input: "96"
    output: "97"
    op_type: "AveragePool"
    attribute {
      name: "ceil_mode"
      i: 0
      type: INT
    }
    attribute {
      name: "kernel_shape"
      ints: 6
      ints: 6
      type: INTS
    }
    attribute {
      name: "pads"
      ints: 0
      ints: 0
      ints: 0
      ints: 0
      type: INTS
    }
    attribute {
      name: "strides"
      ints: 6
      ints: 6
      type: INTS
    }
  }
  node {
    output: "98"
    op_type: "Constant"
    attribute {
      name: "value"
      t {
        data_type: 7
        raw_data: "\000\000\000\000\000\000\000\000"
      }
      type: TENSOR
    }
  }
  node {
    input: "97"
    output: "99"
    op_type: "Shape"
  }
  node {
    input: "99"
    input: "98"
    output: "100"
    op_type: "Gather"
    attribute {
      name: "axis"
      i: 0
      type: INT
    }
  }
  node {
    output: "101"
    op_type: "Constant"
    attribute {
      name: "value"
      t {
        data_type: 7
        raw_data: "\377\377\377\377\377\377\377\377"
      }
      type: TENSOR
    }
  }
  node {
    input: "100"
    output: "102"
    op_type: "Unsqueeze"
    attribute {
      name: "axes"
      ints: 0
      type: INTS
    }
  }
  node {
    input: "101"
    output: "103"
    op_type: "Unsqueeze"
    attribute {
      name: "axes"
      ints: 0
      type: INTS
    }
  }
  node {
    input: "102"
    input: "103"
    output: "104"
    op_type: "Concat"
    attribute {
      name: "axis"
      i: 0
      type: INT
    }
  }
  node {
    input: "97"
    input: "104"
    output: "105"
    op_type: "Reshape"
  }
  node {
    input: "105"
    input: "last_lin.weight"
    input: "last_lin.bias"
    output: "106"
    op_type: "Gemm"
    attribute {
      name: "alpha"
      f: 1.0
      type: FLOAT
    }
    attribute {
      name: "beta"
      f: 1.0
      type: FLOAT
    }
    attribute {
      name: "transB"
      i: 1
      type: INT
    }
  }
  initializer {
    dims: 32
    data_type: 1
    name: "block_1.block.0.bias"
    raw_data: "…"
  }
  initializer {
    data_type: 7
    name: "block_1.block.0.num_batches_tracked"
    raw_data: "\204\003\000\000\000\000\000\000"
  }
  initializer {
    dims: 32
    data_type: 1
    name: "block_1.block.0.running_mean"
    raw_data: "…"
  }
  initializer {
    dims: 32
    data_type: 1
    name: "block_1.block.0.running_var"
    raw_data: "…"
  }
  initializer {
    dims: 32
    data_type: 1
    name: "block_1.block.0.weight"
    raw_data: "…"
  }
  initializer {
    dims: 32
    data_type: 1
    name: "block_1.block.2.bias"
    raw_data: "…"
  }
  initializer {
      dims: 32
      dims: 32
      dims: 3
      dims: 3
      data_type: 1
      name: "block_1.block.2.weight"
  }
  initializer {
    dims: 32
    data_type: 1
    name: "block_1.block.3.bias"
    raw_data: "…"
  }
  initializer {
    data_type: 7
    name: "block_1.block.3.num_batches_tracked"
    raw_data: "\204\003\000\000\000\000\000\000"
  }
  initializer {
    dims: 32
    data_type: 1
    name: "block_1.block.3.running_mean"
    raw_data: "…"
  }
  initializer {
    dims: 32
    data_type: 1
    name: "block_1.block.3.running_var"
    raw_data: "…"
  }
  initializer {
    dims: 32
    data_type: 1
    name: "block_1.block.3.weight"
    raw_data: "…"
  }
  initializer {
    dims: 32
    data_type: 1
    name: "block_1.block.6.bias"
    raw_data: "…"
  }
  initializer {
      dims: 32
      dims: 32
      dims: 3
      dims: 3
      data_type: 1
      name: "block_1.block.6.weight"
  }
  initializer {
    dims: 32
    data_type: 1
    name: "block_1.downsample.0.bias"
    raw_data: "…"
  }
  initializer {
    data_type: 7
    name: "block_1.downsample.0.num_batches_tracked"
    raw_data: "\204\003\000\000\000\000\000\000"
  }
  initializer {
    dims: 32
    data_type: 1
    name: "block_1.downsample.0.running_mean"
    raw_data: "…"
  }
  initializer {
    dims: 32
    data_type: 1
    name: "block_1.downsample.0.running_var"
    raw_data: "…"
  }
  initializer {
    dims: 32
    data_type: 1
    name: "block_1.downsample.0.weight"
    raw_data: "…"
  }
  initializer {
    dims: 32
    data_type: 1
    name: "block_1.downsample.1.bias"
    raw_data: "…"
  }
  initializer {
      dims: 32
      dims: 32
      dims: 1
      dims: 1
      data_type: 1
      name: "block_1.downsample.1.weight"
  }
  initializer {
    dims: 32
    data_type: 1
    name: "block_2.block.0.bias"
    raw_data: "…"
  }
  initializer {
    data_type: 7
    name: "block_2.block.0.num_batches_tracked"
    raw_data: "\204\003\000\000\000\000\000\000"
  }
  initializer {
    dims: 32
    data_type: 1
    name: "block_2.block.0.running_mean"
    raw_data: "…"
  }
  initializer {
    dims: 32
    data_type: 1
    name: "block_2.block.0.running_var"
    raw_data: "…"
  }
  initializer {
    dims: 32
    data_type: 1
    name: "block_2.block.0.weight"
    raw_data: "…"
  }
  initializer {
      dims: 64
      data_type: 1
      name: "block_2.block.2.bias"
  }
  initializer {
      dims: 64
      dims: 32
      dims: 3
      dims: 3
      data_type: 1
      name: "block_2.block.2.weight"
  }
  initializer {
      dims: 64
      data_type: 1
      name: "block_2.block.3.bias"
  }
  initializer {
    data_type: 7
    name: "block_2.block.3.num_batches_tracked"
    raw_data: "\204\003\000\000\000\000\000\000"
  }
  initializer {
      dims: 64
      data_type: 1
      name: "block_2.block.3.running_mean"
  }
  initializer {
      dims: 64
      data_type: 1
      name: "block_2.block.3.running_var"
  }
  initializer {
      dims: 64
      data_type: 1
      name: "block_2.block.3.weight"
  }
  initializer {
      dims: 64
      data_type: 1
      name: "block_2.block.6.bias"
  }
  initializer {
      dims: 64
      dims: 64
      dims: 3
      dims: 3
      data_type: 1
      name: "block_2.block.6.weight"
  }
  initializer {
    dims: 32
    data_type: 1
    name: "block_2.downsample.0.bias"
    raw_data: "…"
  }
  initializer {
    data_type: 7
    name: "block_2.downsample.0.num_batches_tracked"
    raw_data: "\204\003\000\000\000\000\000\000"
  }
  initializer {
    dims: 32
    data_type: 1
    name: "block_2.downsample.0.running_mean"
    raw_data: "…"
  }
  initializer {
    dims: 32
    data_type: 1
    name: "block_2.downsample.0.running_var"
    raw_data: "…"
  }
  initializer {
    dims: 32
    data_type: 1
    name: "block_2.downsample.0.weight"
    raw_data: "…"
  }
  initializer {
      dims: 64
      data_type: 1
      name: "block_2.downsample.1.bias"
  }
  initializer {
      dims: 64
      dims: 32
      dims: 1
      dims: 1
      data_type: 1
      name: "block_2.downsample.1.weight"
  }
  initializer {
      dims: 64
      data_type: 1
      name: "block_3.block.0.bias"
  }
  initializer {
    data_type: 7
    name: "block_3.block.0.num_batches_tracked"
    raw_data: "\204\003\000\000\000\000\000\000"
  }
  initializer {
      dims: 64
      data_type: 1
      name: "block_3.block.0.running_mean"
  }
  initializer {
      dims: 64
      data_type: 1
      name: "block_3.block.0.running_var"
  }
  initializer {
      dims: 64
      data_type: 1
      name: "block_3.block.0.weight"
  }
  initializer {
      dims: 128
      data_type: 1
      name: "block_3.block.2.bias"
  }
  initializer {
      dims: 128
      dims: 64
      dims: 3
      dims: 3
      data_type: 1
      name: "block_3.block.2.weight"
  }
  initializer {
      dims: 128
      data_type: 1
      name: "block_3.block.3.bias"
  }
  initializer {
    data_type: 7
    name: "block_3.block.3.num_batches_tracked"
    raw_data: "\204\003\000\000\000\000\000\000"
  }
  initializer {
      dims: 128
      data_type: 1
      name: "block_3.block.3.running_mean"
  }
  initializer {
      dims: 128
      data_type: 1
      name: "block_3.block.3.running_var"
  }
  initializer {
      dims: 128
      data_type: 1
      name: "block_3.block.3.weight"
  }
  initializer {
      dims: 128
      data_type: 1
      name: "block_3.block.6.bias"
  }
  initializer {
      dims: 128
      dims: 128
      dims: 3
      dims: 3
      data_type: 1
      name: "block_3.block.6.weight"
  }
  initializer {
      dims: 64
      data_type: 1
      name: "block_3.downsample.0.bias"
  }
  initializer {
    data_type: 7
    name: "block_3.downsample.0.num_batches_tracked"
    raw_data: "\204\003\000\000\000\000\000\000"
  }
  initializer {
      dims: 64
      data_type: 1
      name: "block_3.downsample.0.running_mean"
  }
  initializer {
      dims: 64
      data_type: 1
      name: "block_3.downsample.0.running_var"
  }
  initializer {
      dims: 64
      data_type: 1
      name: "block_3.downsample.0.weight"
  }
  initializer {
      dims: 128
      data_type: 1
      name: "block_3.downsample.1.bias"
  }
  initializer {
      dims: 128
      dims: 64
      dims: 1
      dims: 1
      data_type: 1
      name: "block_3.downsample.1.weight"
  }
  initializer {
    dims: 32
    data_type: 1
    name: "first_conv.bias"
    raw_data: "…"
  }
  initializer {
      dims: 32
      dims: 1
      dims: 5
      dims: 5
      data_type: 1
      name: "first_conv.weight"
  }
  initializer {
    dims: 30
    data_type: 1
    name: "last_lin.bias"
    raw_data: "…"
  }
  initializer {
      dims: 30
      dims: 128
      data_type: 1
      name: "last_lin.weight"
  }
  input {
    name: "input.1"
    type {
      tensor_type {
        elem_type: 1
        shape {
          dim {
            dim_value: 1
          }
          dim {
            dim_value: 1
          }
          dim {
            dim_value: 96
          }
          dim {
            dim_value: 96
          }
        }
      }
    }
  }
  input {
    name: "first_conv.weight"
    type {
      tensor_type {
        elem_type: 1
        shape {
          dim {
            dim_value: 32
          }
          dim {
            dim_value: 1
          }
          dim {
            dim_value: 5
          }
          dim {
            dim_value: 5
          }
        }
      }
    }
  }
  input {
    name: "first_conv.bias"
    type {
      tensor_type {
        elem_type: 1
        shape {
          dim {
            dim_value: 32
          }
        }
      }
    }
  }
  input {
    name: "block_1.block.0.weight"
    type {
      tensor_type {
        elem_type: 1
        shape {
          dim {
            dim_value: 32
          }
        }
      }
    }
  }
  input {
    name: "block_1.block.0.bias"
    type {
      tensor_type {
        elem_type: 1
        shape {
          dim {
            dim_value: 32
          }
        }
      }
    }
  }
  input {
    name: "block_1.block.0.running_mean"
    type {
      tensor_type {
        elem_type: 1
        shape {
          dim {
            dim_value: 32
          }
        }
      }
    }
  }
  input {
    name: "block_1.block.0.running_var"
    type {
      tensor_type {
        elem_type: 1
        shape {
          dim {
            dim_value: 32
          }
        }
      }
    }
  }
  input {
    name: "block_1.block.0.num_batches_tracked"
    type {
      tensor_type {
        elem_type: 7
        shape {
        }
      }
    }
  }
  input {
    name: "block_1.block.2.weight"
    type {
      tensor_type {
        elem_type: 1
        shape {
          dim {
            dim_value: 32
          }
          dim {
            dim_value: 32
          }
          dim {
            dim_value: 3
          }
          dim {
            dim_value: 3
          }
        }
      }
    }
  }
  input {
    name: "block_1.block.2.bias"
    type {
      tensor_type {
        elem_type: 1
        shape {
          dim {
            dim_value: 32
          }
        }
      }
    }
  }
  input {
    name: "block_1.block.3.weight"
    type {
      tensor_type {
        elem_type: 1
        shape {
          dim {
            dim_value: 32
          }
        }
      }
    }
  }
  input {
    name: "block_1.block.3.bias"
    type {
      tensor_type {
        elem_type: 1
        shape {
          dim {
            dim_value: 32
          }
        }
      }
    }
  }
  input {
    name: "block_1.block.3.running_mean"
    type {
      tensor_type {
        elem_type: 1
        shape {
          dim {
            dim_value: 32
          }
        }
      }
    }
  }
  input {
    name: "block_1.block.3.running_var"
    type {
      tensor_type {
        elem_type: 1
        shape {
          dim {
            dim_value: 32
          }
        }
      }
    }
  }
  input {
    name: "block_1.block.3.num_batches_tracked"
    type {
      tensor_type {
        elem_type: 7
        shape {
        }
      }
    }
  }
  input {
    name: "block_1.block.6.weight"
    type {
      tensor_type {
        elem_type: 1
        shape {
          dim {
            dim_value: 32
          }
          dim {
            dim_value: 32
          }
          dim {
            dim_value: 3
          }
          dim {
            dim_value: 3
          }
        }
      }
    }
  }
  input {
    name: "block_1.block.6.bias"
    type {
      tensor_type {
        elem_type: 1
        shape {
          dim {
            dim_value: 32
          }
        }
      }
    }
  }
  input {
    name: "block_1.downsample.0.weight"
    type {
      tensor_type {
        elem_type: 1
        shape {
          dim {
            dim_value: 32
          }
        }
      }
    }
  }
  input {
    name: "block_1.downsample.0.bias"
    type {
      tensor_type {
        elem_type: 1
        shape {
          dim {
            dim_value: 32
          }
        }
      }
    }
  }
  input {
    name: "block_1.downsample.0.running_mean"
    type {
      tensor_type {
        elem_type: 1
        shape {
          dim {
            dim_value: 32
          }
        }
      }
    }
  }
  input {
    name: "block_1.downsample.0.running_var"
    type {
      tensor_type {
        elem_type: 1
        shape {
          dim {
            dim_value: 32
          }
        }
      }
    }
  }
  input {
    name: "block_1.downsample.0.num_batches_tracked"
    type {
      tensor_type {
        elem_type: 7
        shape {
        }
      }
    }
  }
  input {
    name: "block_1.downsample.1.weight"
    type {
      tensor_type {
        elem_type: 1
        shape {
          dim {
            dim_value: 32
          }
          dim {
            dim_value: 32
          }
          dim {
            dim_value: 1
          }
          dim {
            dim_value: 1
          }
        }
      }
    }
  }
  input {
    name: "block_1.downsample.1.bias"
    type {
      tensor_type {
        elem_type: 1
        shape {
          dim {
            dim_value: 32
          }
        }
      }
    }
  }
  input {
    name: "block_2.block.0.weight"
    type {
      tensor_type {
        elem_type: 1
        shape {
          dim {
            dim_value: 32
          }
        }
      }
    }
  }
  input {
    name: "block_2.block.0.bias"
    type {
      tensor_type {
        elem_type: 1
        shape {
          dim {
            dim_value: 32
          }
        }
      }
    }
  }
  input {
    name: "block_2.block.0.running_mean"
    type {
      tensor_type {
        elem_type: 1
        shape {
          dim {
            dim_value: 32
          }
        }
      }
    }
  }
  input {
    name: "block_2.block.0.running_var"
    type {
      tensor_type {
        elem_type: 1
        shape {
          dim {
            dim_value: 32
          }
        }
      }
    }
  }
  input {
    name: "block_2.block.0.num_batches_tracked"
    type {
      tensor_type {
        elem_type: 7
        shape {
        }
      }
    }
  }
  input {
    name: "block_2.block.2.weight"
    type {
      tensor_type {
        elem_type: 1
        shape {
          dim {
            dim_value: 64
          }
          dim {
            dim_value: 32
          }
          dim {
            dim_value: 3
          }
          dim {
            dim_value: 3
          }
        }
      }
    }
  }
  input {
    name: "block_2.block.2.bias"
    type {
      tensor_type {
        elem_type: 1
        shape {
          dim {
            dim_value: 64
          }
        }
      }
    }
  }
  input {
    name: "block_2.block.3.weight"
    type {
      tensor_type {
        elem_type: 1
        shape {
          dim {
            dim_value: 64
          }
        }
      }
    }
  }
  input {
    name: "block_2.block.3.bias"
    type {
      tensor_type {
        elem_type: 1
        shape {
          dim {
            dim_value: 64
          }
        }
      }
    }
  }
  input {
    name: "block_2.block.3.running_mean"
    type {
      tensor_type {
        elem_type: 1
        shape {
          dim {
            dim_value: 64
          }
        }
      }
    }
  }
  input {
    name: "block_2.block.3.running_var"
    type {
      tensor_type {
        elem_type: 1
        shape {
          dim {
            dim_value: 64
          }
        }
      }
    }
  }
  input {
    name: "block_2.block.3.num_batches_tracked"
    type {
      tensor_type {
        elem_type: 7
        shape {
        }
      }
    }
  }
  input {
    name: "block_2.block.6.weight"
    type {
      tensor_type {
        elem_type: 1
        shape {
          dim {
            dim_value: 64
          }
          dim {
            dim_value: 64
          }
          dim {
            dim_value: 3
          }
          dim {
            dim_value: 3
          }
        }
      }
    }
  }
  input {
    name: "block_2.block.6.bias"
    type {
      tensor_type {
        elem_type: 1
        shape {
          dim {
            dim_value: 64
          }
        }
      }
    }
  }
  input {
    name: "block_2.downsample.0.weight"
    type {
      tensor_type {
        elem_type: 1
        shape {
          dim {
            dim_value: 32
          }
        }
      }
    }
  }
  input {
    name: "block_2.downsample.0.bias"
    type {
      tensor_type {
        elem_type: 1
        shape {
          dim {
            dim_value: 32
          }
        }
      }
    }
  }
  input {
    name: "block_2.downsample.0.running_mean"
    type {
      tensor_type {
        elem_type: 1
        shape {
          dim {
            dim_value: 32
          }
        }
      }
    }
  }
  input {
    name: "block_2.downsample.0.running_var"
    type {
      tensor_type {
        elem_type: 1
        shape {
          dim {
            dim_value: 32
          }
        }
      }
    }
  }
  input {
    name: "block_2.downsample.0.num_batches_tracked"
    type {
      tensor_type {
        elem_type: 7
        shape {
        }
      }
    }
  }
  input {
    name: "block_2.downsample.1.weight"
    type {
      tensor_type {
        elem_type: 1
        shape {
          dim {
            dim_value: 64
          }
          dim {
            dim_value: 32
          }
          dim {
            dim_value: 1
          }
          dim {
            dim_value: 1
          }
        }
      }
    }
  }
  input {
    name: "block_2.downsample.1.bias"
    type {
      tensor_type {
        elem_type: 1
        shape {
          dim {
            dim_value: 64
          }
        }
      }
    }
  }
  input {
    name: "block_3.block.0.weight"
    type {
      tensor_type {
        elem_type: 1
        shape {
          dim {
            dim_value: 64
          }
        }
      }
    }
  }
  input {
    name: "block_3.block.0.bias"
    type {
      tensor_type {
        elem_type: 1
        shape {
          dim {
            dim_value: 64
          }
        }
      }
    }
  }
  input {
    name: "block_3.block.0.running_mean"
    type {
      tensor_type {
        elem_type: 1
        shape {
          dim {
            dim_value: 64
          }
        }
      }
    }
  }
  input {
    name: "block_3.block.0.running_var"
    type {
      tensor_type {
        elem_type: 1
        shape {
          dim {
            dim_value: 64
          }
        }
      }
    }
  }
  input {
    name: "block_3.block.0.num_batches_tracked"
    type {
      tensor_type {
        elem_type: 7
        shape {
        }
      }
    }
  }
  input {
    name: "block_3.block.2.weight"
    type {
      tensor_type {
        elem_type: 1
        shape {
          dim {
            dim_value: 128
          }
          dim {
            dim_value: 64
          }
          dim {
            dim_value: 3
          }
          dim {
            dim_value: 3
          }
        }
      }
    }
  }
  input {
    name: "block_3.block.2.bias"
    type {
      tensor_type {
        elem_type: 1
        shape {
          dim {
            dim_value: 128
          }
        }
      }
    }
  }
  input {
    name: "block_3.block.3.weight"
    type {
      tensor_type {
        elem_type: 1
        shape {
          dim {
            dim_value: 128
          }
        }
      }
    }
  }
  input {
    name: "block_3.block.3.bias"
    type {
      tensor_type {
        elem_type: 1
        shape {
          dim {
            dim_value: 128
          }
        }
      }
    }
  }
  input {
    name: "block_3.block.3.running_mean"
    type {
      tensor_type {
        elem_type: 1
        shape {
          dim {
            dim_value: 128
          }
        }
      }
    }
  }
  input {
    name: "block_3.block.3.running_var"
    type {
      tensor_type {
        elem_type: 1
        shape {
          dim {
            dim_value: 128
          }
        }
      }
    }
  }
  input {
    name: "block_3.block.3.num_batches_tracked"
    type {
      tensor_type {
        elem_type: 7
        shape {
        }
      }
    }
  }
  input {
    name: "block_3.block.6.weight"
    type {
      tensor_type {
        elem_type: 1
        shape {
          dim {
            dim_value: 128
          }
          dim {
            dim_value: 128
          }
          dim {
            dim_value: 3
          }
          dim {
            dim_value: 3
          }
        }
      }
    }
  }
  input {
    name: "block_3.block.6.bias"
    type {
      tensor_type {
        elem_type: 1
        shape {
          dim {
            dim_value: 128
          }
        }
      }
    }
  }
  input {
    name: "block_3.downsample.0.weight"
    type {
      tensor_type {
        elem_type: 1
        shape {
          dim {
            dim_value: 64
          }
        }
      }
    }
  }
  input {
    name: "block_3.downsample.0.bias"
    type {
      tensor_type {
        elem_type: 1
        shape {
          dim {
            dim_value: 64
          }
        }
      }
    }
  }
  input {
    name: "block_3.downsample.0.running_mean"
    type {
      tensor_type {
        elem_type: 1
        shape {
          dim {
            dim_value: 64
          }
        }
      }
    }
  }
  input {
    name: "block_3.downsample.0.running_var"
    type {
      tensor_type {
        elem_type: 1
        shape {
          dim {
            dim_value: 64
          }
        }
      }
    }
  }
  input {
    name: "block_3.downsample.0.num_batches_tracked"
    type {
      tensor_type {
        elem_type: 7
        shape {
        }
      }
    }
  }
  input {
    name: "block_3.downsample.1.weight"
    type {
      tensor_type {
        elem_type: 1
        shape {
          dim {
            dim_value: 128
          }
          dim {
            dim_value: 64
          }
          dim {
            dim_value: 1
          }
          dim {
            dim_value: 1
          }
        }
      }
    }
  }
  input {
    name: "block_3.downsample.1.bias"
    type {
      tensor_type {
        elem_type: 1
        shape {
          dim {
            dim_value: 128
          }
        }
      }
    }
  }
  input {
    name: "last_lin.weight"
    type {
      tensor_type {
        elem_type: 1
        shape {
          dim {
            dim_value: 30
          }
          dim {
            dim_value: 128
          }
        }
      }
    }
  }
  input {
    name: "last_lin.bias"
    type {
      tensor_type {
        elem_type: 1
        shape {
          dim {
            dim_value: 30
          }
        }
      }
    }
  }
  output {
    name: "106"
    type {
      tensor_type {
        elem_type: 1
        shape {
          dim {
            dim_value: 1
          }
          dim {
            dim_value: 30
          }
        }
      }
    }
  }
}
opset_import {
  version: 10
}
